model/model.pth (torch, 17216 bytes, 4 tensors)

linear1.weight f4 [256, 11]
00000000: db98 aebe fd11 e13e 92b9 d5bb 1f38 8cbe
00000010: 23ae b73d f515 5bbd 4afa 7e3e f1e3 eabe
00000020: c05c 46bc 63a3 f23d 57b3 1d3e 5c8b b5bb
00000030: c841 89be 73a9 043e 5943 163e f6de 5ebe
00000040: a19a a13e 719d 2c3e 6e47 123e 1ddb 2a3d
00000050: ab1b c7bd f5fa bbbe 1de6 43be 7fc7 b5bd
00000060: 4622 3abe 25c4 cfbe 96c0 2fbe 013b 34be
00000070: e186 d13e da52 ad3e 52ed 8abe 04e9 48bb
00000080: 820b 523e 00f6 243c 2037 4e3c 2bf7 45be
00000090: bb36 713c 7523 7dbe d66d 53be 2095 34bd
000000a0: 7eea 61be 5396 fabc d3e3 a1bc 55ae 44be
000000b0: 3a29 b9be 52e9 923e aee6 46bd 446d 963e
000000c0: c9c7 b5be 4290 e2bd 9ab5 593e 1c71 79be
000000d0: 2dcf 0e3e b41e 38be a03d 88be b99d 743e
000000e0: d88d 893d 412d 80bd 46ea 183d 9058 b13d
000000f0: 2668 1dbe e889 5c3e 3dcc d3be 8055 d1bd
00000100: 5f53 91bd 1dbb b9bd 73f7 8c3d 5481 a2be
00000110: 930c a0be d9e7 0fbe 6f2e 2e3e daa9 86be
00000120: f27a d93e 429c 913e 8df0 8b3c 7fdd c1be
00000130: 30eb b5be df33 b5bd a2a7 243e de43 943d
00000140: 3a81 053d b458 17be febf fbbe f3f0 9b3e
00000150: 6c02 253d a56a 343e a9a4 133f 5817 d5be
00000160: 3595 bb3e b24c 5bbe 9e06 24bd 9989 29be
00000170: cc0f 853d 7854 ffbd ba6c 6dbd 4cb8 2c3e
00000180: 447d ce3d a29c a0bd 4169 213e be6b 94be
00000190: 82f1 1d3f 66cc ccbe fac4 bb3d d3b5 7dbd
000001a0: e17f b7bd c721 f63c 8c4f 84be fb91 683d
000001b0: 2294 363d f7d0 1e3e 14ee 393e 46a5 393d
000001c0: 9d51 e13d 6d1e 79bd bcc6 d0bd 44b8 913b
000001d0: 044f e7bd 2663 34be 60f3 c43d 4c15 94be
000001e0: 4b32 8dbc 1cac b93e 710e ed3e ceda 85bc
000001f0: f678 6a3d faaf adbe 78b8 e1bc cbea 313e
00000200: 411b 43be bcbb 923e aff5 183e c892 9f3d
00000210: 076e 66bd b8bd 2d3c ce0a 54be 88ed d53e
00000220: 907b bcbe cccf adbd 903a b73e 3d85 183e
00000230: a00d c7bc 9193 f9be fdc3 143e 5936 b33e
00000240: 7f79 14be 3dea bdbe 09f5 31be 3bc5 56bb
00000250: a035 ff3d 66b9 173e 9c2f 993d 5795 28bc
00000260: b255 a5be efe9 43be 8f47 9f3e 337d d9bd
00000270: d489 cd3e ab8f e23d cee3 06be 9866 0dbd
00000280: 2323 e8be 412a 84bb 10f2 7d3e dc91 f3bc
00000290: d9b0 123f 7b77 c33d 9f67 bb3e 4e91 d13e
000002a0: 34ec 46be ebda e0bd 46e4 58bd 6024 83bd
000002b0: 900b 273e fd11 283e 8992 fd3e 5d58 033f
000002c0: eb12 95be 6465 123d 8557 4dbe 97e2 adbe
000002d0: 7bc0 473a 55d0 9fbd 9d92 0c3e 8a70 8bbe
000002e0: 8727 5abe 203d b1be 3759 4b3e 7e7f a63e
000002f0: 16af eebd 3b22 05bf 4b69 41bd db12 43bd
00000300: fa49 64be ad04 2bbc e5ba 843e cb85 343e
00000310: 8819 593e 318c 153e 54ed 06bf b023 f73e
00000320: b293 78be cc35 9abe 59ac aebe cc28 97bd
00000330: 7c8c a2be 0e53 063e 8d4e f4bd 96e8 123e
00000340: 6c08 c53e d153 bdbe ff56 223f a65f 87be
00000350: 92fe 5bbe ad58 943e 8a7a 393e 9c45 463b
00000360: bb0d d03d aa2a 013d 92ff c33e 35f7 0abe
00000370: c3bf fe3d 6c4c a43d 55df 88bd f640 4cbe
00000380: ef6b 323e 0e27 aa3e ff38 ee3d 45f8 5a3e
00000390: e7a1 3dbe 43bf b8be 9d95 0abe 2bae 1c3f
000003a0: 498e 89bc f742 b7be c56b 923e a667 493d
000003b0: f981 513e 4ea9 5d3e 7c10 79be e8af 183e
000003c0: 3c7d c5bd 5535 1ebd 2d37 eb3d fe09 d23d
000003d0: 4553 35bc a895 343d 0df8 8fbe ea78 c73d
000003e0: 0ec3 233e a5c2 48bd b163 91be 3e7f bbbe
000003f0: b802 96be e42b 15be 8cf6 a3bd 5f0e 6abe
-0.34100994 0.43959036 -0.006522366 -0.27386567 0.08968761 -0.053487737 0.24900165 -0.4587703
-0.012107074 0.1184757 0.15400444 -0.0055402946 -0.26808 0.12955265 0.14674129 -0.2176474
0.31563285 0.16856934 0.14285061 0.04171287 -0.09722074 -0.36714903 -0.1913075 -0.088759415
-0.18177137 -0.40579334 -0.1716331 -0.17600633 0.40923217 0.33852273 -0.27134186 -0.0030656466
0.20512202 0.010068417 0.012586385 -0.19332568 0.014722521 -0.24720557 -0.20647368 -0.04408753
-0.22062108 -0.030589258 -0.019761955 -0.19207127 -0.36164266 0.28693634 -0.048559837 0.29380238
-0.35503986 -0.11062671 0.21260682 -0.24359554 0.13946219 -0.17980462 -0.26609516 0.23888291
0.06716508 -0.062586315 0.037332796 0.0865947 -0.1537176 0.21536982 -0.4136676 -0.10221386
-0.0709598 -0.09068892 0.06883135 -0.31739295 -0.31259593 -0.14053287 0.170099 -0.2630146
0.42476612 0.28439528 0.017082477 -0.378643 -0.35530996 -0.08847784 0.16079572 0.07239507
0.032593943 -0.14779931 -0.49169916 0.30457267 0.040285513 0.17618807 0.57673126 -0.41619372
0.36637273 -0.21415976 -0.040045373 -0.16556396 0.06497154 -0.12467283 -0.057965018 0.16867179
0.10082486 -0.07842375 0.15762807 -0.2898845 0.61696637 -0.39999694 0.0916843 -0.06194098
-0.08959938 0.030045403 -0.2584194 0.056779843 0.044574864 0.15509401 0.18157226 0.045323633
0.110018946 -0.060820032 -0.101941556 0.004447015 -0.11294368 -0.17615947 0.096167326 -0.28922498
-0.017235896 0.36264122 0.4630008 -0.016339686 0.057244264 -0.33923322 -0.027553782 0.17374723
-0.19053365 0.28658855 0.14937471 0.07791668 -0.056257274 0.0106043145 -0.20707247 0.41782784
-0.3681302 -0.084869 0.35786867 0.14894576 -0.02429849 -0.48745397 0.14527889 0.350024
-0.14499472 -0.37092772 -0.1737863 -0.0032771367 0.124614 0.14816818 0.07479784 -0.010289512
-0.32291943 -0.19132207 0.31109282 -0.10619583 0.40144217 0.11062559 -0.13172838 -0.03452167
-0.45339307 -0.0040333574 0.24799371 -0.029732637 0.573011 0.095442735 0.36602494 0.4093117
-0.19426042 -0.10979255 -0.052952074 -0.06403422 0.16313004 0.16413112 0.4952586 0.51306707
-0.29115996 0.035741225 -0.20052917 -0.33961937 0.00076199294 -0.07803408 0.13727804 -0.27234298
-0.21304141 -0.34616947 0.19858252 0.32519144 -0.11654489 -0.52005357 -0.047219556 -0.047625404
-0.22293845 -0.0104381265 0.2592384 0.17629163 0.21201146 0.1460426 -0.52705884 0.48269415
-0.24275091 -0.3011917 -0.34115866 -0.07380828 -0.31747806 0.1311762 -0.11929045 0.14346537
0.38482988 -0.3697801 0.63413996 -0.2644016 -0.2148383 0.28973904 0.18113151 0.0030253893
0.10158869 0.03153483 0.38280922 -0.13570864 0.124389194 0.08022389 -0.06683222 -0.19946656
0.17423986 0.3323292 0.11631965 0.2138377 -0.18518792 -0.3608342 -0.13533635 0.6120326
-0.01679148 -0.35793278 0.28597847 0.049171112 0.20459737 0.21646616 -0.24322695 0.14910853
-0.09643027 -0.03862508 0.11485133 0.10255812 -0.011067216 0.044088036 -0.28118935 0.097398594
0.15992376 -0.049013752 -0.2839637 -0.36620516 -0.2929895 -0.14567524 -0.080060095 -0.22857045

linear1.bias f4 [256]
00000000: 345b 9b3e d211 62bd 9a3f 01be 6fce 2dbc
00000010: 7e8d 01be eb59 9abe e674 19be 2ea2 8ebd
00000020: 2f97 cbbd 0bab 4c3e 38ba 34bd ad20 8ebe
00000030: c10c f83d 0345 a73e 48b3 01be 3654 12be
00000040: f503 8d3d afa2 0bbe edd9 523e cc23 3dbe
00000050: e79c b6bc ac62 88be 99e6 d6bd 3953 bc3d
00000060: 49e8 cfbb c630 81be 1992 69bd 8603 83be
00000070: 6715 83be ffd2 f13d 2476 d53d cd68 2bbe
00000080: 2caa 4b3e d78a 883e b89a 1a3e 2fb6 373e
00000090: 9b99 c93e 6132 35bd cbfa 41be d3c5 6e3d
000000a0: eb61 b5bc ba9c 63be 41c0 e6bd aca5 81bc
000000b0: 467b bbbe 9010 efbd 3189 8a3c a71c 79be
000000c0: 6e53 9cbe c7a6 813e 1f02 44be 9499 29be
000000d0: 0230 e8bd 46c7 5bbe 1129 9d3c 8399 45be
000000e0: 8051 f1bd 25ec 1cbe bb5c febc 8120 aabe
000000f0: 0667 a33d dee6 61bd 5be8 693d 8fb0 57be
00000100: 87e5 1dbe 7b79 eabd dd64 92bd f513 46be
00000110: 8301 d4bd b4f5 bc3c d479 2b3e 3c43 983e
00000120: a49f 3dbe d090 e9bd 96d0 4abd 366a a6bd
00000130: 08fc 30be 44f0 0fbd 9b1a 00bc a5dd f3bc
00000140: c815 633d d09a 7ebe ed1c ddbd 46db a83d
00000150: fe4e 703d be2a 653e b7f5 3abe b520 e13d
00000160: cf65 1dbe a029 99bc b55d 03be 29a0 963e
00000170: 1dae 193e ef5c 7d3d 46ca 0d3f d0d6 19be
00000180: fb13 82bd 4223 483e 50fb d5bc 6c5b 3bbe
00000190: 9332 11be 1436 fcbd 03fd e63d ca10 f8bd
000001a0: faa5 873e 8848 383e 5a5a 4dbe 4b91 2dbe
000001b0: ac2f 953d d646 473d c6cf 3dbe 9d8d 2cbe
000001c0: 2ad7 46be efd3 e73d 1937 833e b100 af3d
000001d0: 0313 9ebe d319 f5bd 88cd fa3d 00e1 45bd
000001e0: 88f5 4a3e fa27 c73d fa80 10be daef 14be
000001f0: b4ca 2bbd 2ba6 edbd b97a ebbd e120 06be
00000200: 3403 a03d 0c5c 143e 35dd 27be 76e0 f6be
00000210: 7964 34be 4734 3b3e 0fb3 663e da84 6fbe
00000220: 0e26 3a3e 23d2 33be 3989 573d 1ad7 b8bd
00000230: 1e6f b0bc 86f4 7ebd 846a 87be 4d58 bcbd
00000240: 912c 13be afea e93c 4147 3b3e 3780 cfbd
00000250: 5941 56bd cc4e 46bd 542b a1bd 1e7b 9bbd
00000260: 920c f0bc 272a 303e 1754 5c3c 0f0e 52be
00000270: 7924 783d 6136 243d 0ed1 b63e 49e2 0abe
00000280: f979 8c3e c11f ae3e 6daa 643c a1a7 6d3b
00000290: acdf c7bd 2197 19bd 63a5 d6bd 591e d23d
000002a0: 5fcb bc3e 34c2 b43d 5124 a93e e934 003e
000002b0: 1fa8 f9bd 5c32 7abd e429 553e ced7 323d
000002c0: 604c aabe 9ff7 84bd cd37 863d 80c6 c7be
000002d0: 2e94 1dbe e4c7 b5bd 7312 05be 0e40 163e
000002e0: 00ac 673d 680d e7bd 1934 4fbd 62b8 3bbe
000002f0: 5def 103c f00b 96bd 46d5 0c3e add5 10be
00000300: b70b 8c3e f789 49be 1e12 013e 99bc 62be
00000310: e263 713b cba0 e9bd bfb3 cd3e 9fb5 0a3e
00000320: 57bb c0bc 8d66 65bd 5c1d 653e 477d 813e
00000330: 26ed abbd e2cf c43d d1e4 363e 27f6 59be
00000340: 1922 88be a67e 24be 5d90 58be 4bf3 bc3e
00000350: 3f74 0d3e 838b 003f 93ca c5bd d30e 13be
00000360: cdd0 8fbd 2829 df3d af31 5fbe e8c6 7cbd
00000370: dfbd 83be 93cf 09be 1af7 f1bd d830 3d3e
00000380: fcda b83e 04cb dbbc 9e0c ba3e 9a8a a1bb
00000390: 6786 993d 04c6 9a3d 3840 cc3d 4445 40be
000003a0: 8474 bb3e e270 08be 12a1 413d 56f2 ccbb
000003b0: 3e17 983d 5a83 b73d 9cba 1dbe ed00 663b
000003c0: 0da5 1a3d 3c3c 06be aed9 20be 6668 38be
000003d0: 9e22 cfbd a85d 94be 0367 e5bc 1960 cfbd
000003e0: b90a 51be 7ede 73be 5abe 9a3d 581b 7e3d
000003f0: 2178 a53e 7455 0ebe c420 bdbd c4b0 c83d
0.3034302 -0.055192776 -0.12621918 -0.0106083 -0.12651631 -0.30146727 -0.14986 -0.06964527
-0.09940945 0.19987123 -0.044122905 -0.27759305 0.121118076 0.3266984 -0.12666047 -0.14289936
0.0688552 -0.13636278 0.20590945 -0.18470687 -0.022291614 -0.2663778 -0.10493202 0.09195561
-0.006344829 -0.25232524 -0.057024095 -0.25588626 -0.25602266 0.118078224 0.10422924 -0.16739197
0.19889134 0.26668426 0.15098083 0.17940591 0.39375004 -0.0442375 -0.18943326 0.05829413
-0.022141417 -0.22227755 -0.11267138 -0.015826069 -0.36617488 -0.11673081 0.016911121 -0.24327336
-0.30532402 0.25322554 -0.19141434 -0.16562492 -0.11337282 -0.21462736 0.019184621 -0.19296841
-0.11783123 -0.15324457 -0.031050077 -0.33227924 0.079786345 -0.055151813 0.057106357 -0.21063446
-0.15419589 -0.11448952 -0.071481444 -0.1934355 -0.10351851 0.02306638 0.16745692 0.29738796
-0.1851793 -0.11404574 -0.04951533 -0.08125727 -0.17283642 -0.035141245 -0.007818843 -0.029768774
0.055440694 -0.24863744 -0.10796533 0.08244948 0.058669083 0.22379586 -0.18257795 0.109925665
-0.15370868 -0.018696606 -0.12828715 0.29419068 0.15007825 0.061856207 0.5538677 -0.1502335
-0.06351467 0.195447 -0.026120812 -0.18296593 -0.14179449 -0.12315002 0.11278727 -0.12112577
0.26493818 0.17996418 -0.20053998 -0.16949956 0.07284483 0.04865154 -0.1853629 -0.16850896
-0.19418016 0.1131972 0.25627974 0.08545054 -0.3087388 -0.11967816 0.12246233 -0.04831028
0.19820225 0.09724422 -0.141117 -0.14544621 -0.04194136 -0.1160396 -0.11498017 -0.1309848
0.07813111 0.14488238 -0.16392978 -0.48218125 -0.17616452 0.18281661 0.22529243 -0.23390523
0.18178579 -0.1756063 0.0526211 -0.09025402 -0.02153736 -0.062244914 -0.26448452 -0.091965295
-0.1437247 0.028554289 0.182889 -0.10131877 -0.052308414 -0.04841499 -0.07869592 -0.07591842
-0.029302869 0.1720358 0.013447783 -0.20513175 0.060581658 0.040090922 0.3570637 -0.13562883
0.27436808 0.340086 0.013956648 0.0036263245 -0.09759459 -0.037497643 -0.10480764 0.102596946
0.3687391 0.08826104 0.3303552 0.12520184 -0.1219027 -0.061083183 0.20816761 0.04366284
-0.33261395 -0.064925425 0.06553612 -0.3901863 -0.15388557 -0.08876017 -0.12995319 0.14672872
0.056560516 -0.11281854 -0.050586794 -0.18332055 0.008846131 -0.07326496 0.13753232 -0.14144011
0.27352688 -0.19681536 0.12604567 -0.22142257 0.0036833216 -0.11407622 0.40176198 0.13545845
-0.02352683 -0.056006003 0.22374481 0.25290892 -0.08394842 0.09609963 0.17860724 -0.21285306
-0.26588514 -0.16063938 -0.2114882 0.36904368 0.13813876 0.5021288 -0.096577786 -0.14361124
-0.070222475 0.10896522 -0.21796297 -0.06171313 -0.25730798 -0.1345809 -0.11814709 0.18475664
0.36104572 -0.026830204 0.3633775 -0.0049298527 0.07496338 0.075573 0.09973186 -0.18776423
0.36612332 -0.13324311 0.04727275 -0.0062544746 0.07426308 0.089606 -0.15403217 0.0035095767
0.03775506 -0.13108915 -0.15708038 -0.18008575 -0.101140246 -0.28977704 -0.028003221 -0.10125751
-0.20414247 -0.23815343 0.07555838 0.062037796 0.32318214 -0.13899785 -0.09234765 0.0979934

linear2.weight f4 [3, 256]
00000000: cb6d 733e 0103 203d 9c27 703e 8593 32bd
00000010: 1871 20be 5a7f c23c 71c0 5abe 5d5c dabe
00000020: dc59 81bc 9f81 153e 166e e93c 565f 12be
00000030: fe77 973e dc40 a03d 5036 b4be ec82 04be
00000040: 5e05 ff3d bf56 64be d482 773d fcc1 9b3d
00000050: d658 a1be 07bd 51be c320 c4bd 0094 983b
00000060: cbee 1d3e 3079 5abe b92f 873e 103f 6fbe
00000070: f166 e6bc fa7f e1bd 49f0 803e dc10 afbe
00000080: 4616 963e bb0a 3d3d 933c e93d bf20 7fbe
00000090: 9c8d ed3d 5ebe 3abe 2043 dbbe 9544 133e
000000a0: b540 de3d 97a8 3bbe 1921 61bd db33 7d3d
000000b0: f1c3 6c3d 8186 0abf bf35 253d cda1 cfbe
000000c0: 5125 343e 677e ae3d c45f efbc 3da7 cabd
000000d0: 9e1f 84bd 2c1b 1b3d ed35 2e3e 08d9 1f3d
000000e0: a50e f13d 2584 c83e 9722 ba3e 9dc6 8e3b
000000f0: 941e fbbd aa8b 88be a58b 643e d1ba 05be
00000100: 0939 cfbd ad62 9ebd ecc9 1fbe 32ca eabd
00000110: 5117 98be 88d9 133e c5f1 3abc 8f15 b53c
00000120: 20c4 61be 748e 79be 9486 babd 28f0 b1be
00000130: 21ff 293d 21cb 83bd 3c6c f4be 6d4c f0be
00000140: 6d86 44be 66c6 2cbd 47c6 f7bc dd6f 88bb
00000150: c817 f43d 826f 423e 02c3 e0be 5dcf 87be
00000160: 7e0d 5fbe 3903 10bd 1022 3f3d 09be 2d3e
00000170: cd20 063d 3ef8 15be cb65 d03e 6524 503d
00000180: 2d8a b0bc 1ca4 ec3c faf7 b2be 68ca cebd
00000190: b1b0 363e 70a2 35be 7728 373e 40fe 45bd
000001a0: b09c 4c3e f4e5 123e 59da db3d 6bfc d3be
000001b0: d699 84bc c1d2 93be 023a 1e3e 5b73 42bf
000001c0: 55d7 123e 70f5 ef3d e990 c2be 184c 92bd
000001d0: 1965 643e 1b29 a43e 5cc8 a23e 9312 8d3e
000001e0: 5788 b23c 11de 453e b0df 2cbe c712 07bf
000001f0: b0c9 e53c 5e0d 99be c8e5 01bf e342 a13b
00000200: 6932 d13d 56a6 0cbe 917e 32bf 2899 5cbe
00000210: f3f5 4abd d909 c43c 6bd4 993e 31d0 c238
00000220: 60c3 df3d d4e9 92be 564e c83d 0b00 853e
00000230: 244f fcbe 2b2f 5a3e 52bd 9c3d 9627 54bb
00000240: 86d3 e3be bd16 72be f007 7c3e 33c6 69be
00000250: 9f73 f5bc 1b83 0abf 60ae 8d3e 82e7 513e
00000260: a6c2 813e abeb a73e 4114 a43e aa8c 563d
00000270: 52e7 893e 87fb 10be c5f5 623e 4537 02be
00000280: 88a8 d13e 03c3 533e 15a1 99bd aa7e 873e
00000290: c4d4 ac3b 7f8e 80be d7ef 863e a43a 483e
000002a0: 6632 613e 63f1 16bd 4854 c13e d029 b13c
000002b0: 22b2 b9bd a24e 9ab9 210e 4b3e 3b27 6d3e
000002c0: 210d b73c 937a 8fbe cdb2 b53d 8b01 25bd
000002d0: 41e3 97be 2931 f8be 6f08 87be 6524 27be
000002e0: 92b9 0fbe fe6d b8bc 31b1 fdbd f1fd bbbe
000002f0: a8d2 59be 905b aabe 0760 9ebe 0ab4 d3be
00000300: 38a2 923d ea3d 99be dfd8 f8bc a126 9d3c
00000310: 7a78 0c3f b2a3 05be 6bf5 6a3e 05cb 543d
00000320: 6f79 713d ced3 7fbe 11e9 593d 0bfa c03e
00000330: 7c57 88be 8d85 303d b1f1 10bd b602 523e
00000340: 4ba3 93be a6db 64bd 6854 0b3d 78bb 6a3e
00000350: 4fce 6c3d 0ba8 d23e d78f e2bd 8a5c b7be
00000360: 6e7a 683e 9f5e d2bd a58c b2be 2578 a5be
00000370: 2fdf 92bc ba5a 3dbe 8260 73be 4769 a83e
00000380: 681d 893e d8f1 dcbd 5909 143f b00c 6f3d
00000390: 5f15 b23c 1686 ccbd 55c5 b73b 3da0 bcbe
000003a0: 78e2 6d3e ddb9 50be 82a2 6d3e 58b7 683d
000003b0: 048f 2cbd ab3a b73d 09b5 85be efc3 b3bc
000003c0: cfd9 85bc 3eb3 87bd d0c4 f23b 8fee 96bd
000003d0: f886 e6bd d9bc 4abd fef8 4ebd 4277 4bbe
000003e0: cfec acbc 79aa 9dbc f77c 18be 29a1 11be
000003f0: 82af 923e f0f5 28be 92cb 95be a93d 993e
0.23772351 0.039065365 0.2345261 -0.043597717 -0.15668142 0.023742367 -0.21362473 -0.42648593
-0.015789919 0.14600228 0.028494876 -0.1429418 0.29583734 0.07824871 -0.35197687 -0.12940568
0.124521956 -0.22298716 0.0604275 0.07605359 -0.3151309 -0.20482264 -0.09576561 0.004656315
0.15423124 -0.21335292 0.26403597 -0.233639 -0.028125258 -0.11010738 0.25183323 -0.3419255
0.29313868 0.04615281 0.11388507 -0.24914835 0.115992755 -0.18236682 -0.4282465 0.1438163
0.10852186 -0.1832603 -0.054963205 0.06181703 0.05780405 -0.54111487 0.04033446 -0.40553132
0.1759236 0.08520203 -0.02922047 -0.098951794 -0.06451343 0.03786771 0.17012759 0.039025337
0.11770371 0.39163318 0.36354515 0.0043571726 -0.12261692 -0.26669055 0.22318895 -0.13059546
-0.101183005 -0.07733665 -0.15604371 -0.11464347 -0.2970529 0.1443845 -0.011410181 0.022105007
-0.22047472 -0.24370748 -0.091077 -0.34753537 0.041503076 -0.06435228 -0.47738826 -0.46933308
-0.19191904 -0.042181395 -0.030245913 -0.004163726 0.119185984 0.1898785 -0.4389878 -0.26525393
-0.2178249 -0.035159323 0.046663344 0.16967024 0.032746125 -0.14645478 0.40702662 0.05081596
-0.021550262 0.028886847 -0.34954816 -0.100972 0.1784084 -0.17737746 0.1788653 -0.048338175
0.19981647 0.14345533 0.10735006 -0.41403517 -0.016186636 -0.2887173 0.15451816 -0.7595727
0.14339955 0.11716735 -0.38001183 -0.0714342 0.2230419 0.3206261 0.31793487 0.27553234
0.021793528 0.19322993 -0.16882205 -0.52763027 0.028050274 -0.2989301 -0.50741243 0.0049213036
0.10214693 -0.13735327 -0.69724375 -0.215428 -0.04955096 0.023930477 0.30044875 9.2894195e-05
0.10925937 -0.28694022 0.097805664 0.25976595 -0.4927913 0.21307056 0.076532975 -0.0032372228
-0.44497317 -0.23641486 0.24612403 -0.22829513 -0.029962359 -0.541063 0.276721 0.2049847
0.25343817 0.32796988 0.32046703 0.05238024 0.26934296 -0.1415845 0.22164066 -0.12716396
0.40948892 0.2067986 -0.07501427 0.26463825 0.005274387 -0.25108716 0.26354858 0.1955362
0.21991882 -0.036851298 0.37759614 0.021626383 -0.09067179 -0.00029431755 0.19829609 0.23159496
0.022345128 -0.28023204 0.08871994 -0.040284675 -0.29665568 -0.48475006 -0.26373622 -0.16322477
-0.14035633 -0.022513386 -0.12387312 -0.3671718 -0.21271765 -0.33272982 -0.30932638 -0.41348296
0.07159847 -0.2993005 -0.03037685 0.019183459 0.5487133 -0.13050726 0.22945182 0.051951427
0.0589537 -0.24983141 0.053200785 0.37690768 -0.26629245 0.043096114 -0.035386745 0.20508847
-0.2883552 -0.055873536 0.034016043 0.22923076 0.05781394 0.41143832 -0.110625915 -0.3581279
0.22702953 -0.10271954 -0.34872928 -0.32318226 -0.017928688 -0.1849164 -0.23767284 0.3289282
0.26780248 -0.107883155 0.57826763 0.05836171 0.021738706 -0.09986512 0.0056082406 -0.36841002
0.23230922 -0.20383401 0.23206523 0.056815475 -0.042128578 0.08946737 -0.2611468 -0.021944014
-0.01633921 -0.066259846 0.007408716 -0.0736972 -0.11256212 -0.049496505 -0.050530426 -0.19869712
-0.021109013 -0.019246327 -0.1489142 -0.14221634 0.28649527 -0.16500068 -0.29256874 0.29929855

linear2.bias f4 [3]
00000000: 08a0 0c3e 6ee1 d2bc 655a 32bd
0.13732922 -0.025742259 -0.04354324
