model/model.pth (torch, 17216 bytes, 4 tensors)

linear1.weight f4 [256, 11]
00000000: ca02 7b3e db00 133f a1c2 c33d 0209 87be
00000010: 51c5 16bd 9e34 f7bd 00c5 bbbb 5fa4 1b3e
00000020: 63a1 2ebe f292 4d3e ddf9 acbd d002 45be
00000030: 73dd a23c b520 26be d4a5 f3be 1a8a e2be
00000040: 9006 d8be ca80 8b3e 3b17 96be ffec 28bf
00000050: b36c 96be e070 fa3d 7e65 93be 6a92 64bc
00000060: 727c 933d 2805 a73e 9f4e 653e fdc0 48be
00000070: f638 6abe 9a3c 7cbe ff54 1ebe a7b3 9f3e
00000080: b6c4 a23e b2ed d63e 3d25 0abf 2f54 123e
00000090: 32db a3bd 9f77 d0bd c6ae fabd 21b9 243d
000000a0: 2d71 0c3e 5dfd 233e 1244 883c f4b5 99bd
000000b0: 701c e23e 7ee3 e8be cb34 c03e c1f0 b3bd
000000c0: 3682 1a3e 6ea1 483e 92c2 2ebd 7635 37bd
000000d0: 46ef d33d c74e 663e 178d 93bd 3737 ed3e
000000e0: add5 ca3e 8fbd 08be e0da 303e 4e96 103e
000000f0: 0dba fd3d f491 4dbd 4beb 6e3e 4e7b 643d
00000100: 8a75 af3e d1fb 973e a312 1cbf 0b25 af3e
00000110: 88fd a1be 3d75 93bb e61a 3bbe 9a01 343e
00000120: 0201 053e 0595 40be e92b 123e a80b bb3e
00000130: b9b1 c7bd 9431 81be af7f 9d3e e154 943e
00000140: 5f80 d53d b321 5c3d 0802 623e 3532 3c3e
00000150: 0782 ecbd cb6a 2dbe 2021 c93d 8ec4 223e
00000160: 1cb4 f03e 58d1 0c3f 87b2 75be 991b 153e
00000170: 8c96 c2be 5ce2 533e a468 153e b68e 5cbc
00000180: dcfb 973e 05d8 0ebc 4436 853e 7029 303e
00000190: 1a98 9d3d 206b ee3d 7776 093e 5c53 e4be
000001a0: ef72 ccbe 8e34 203e 4a8e 49be a51b bb3e
000001b0: c4fa 9f3e 0583 42be 71c9 cd3d 5cd7 d73e
000001c0: 0377 c03e 46f2 3cbe 11b3 463e 54a6 8e3e
000001d0: 85cd 1bbe d86a af3e 9075 2e3d 1138 43be
000001e0: 3be1 b93e bf9c 39be f009 373d cf4b ff3e
000001f0: fbb0 0a3e deb2 22bc bb6b 01be f920 8dbe
00000200: b061 29be d640 a03d 74e0 313e f3fe 29bd
00000210: 952b 33bf 4710 1e3f 0eb5 ffbc 0e86 863e
00000220: 31a0 ac3e a90c b4bd 84ef 6cbe 5c39 8d3d
00000230: c438 c63e 0ed1 55bd 0030 01bf 8a34 81be
00000240: df90 fb3e 5cd0 18be d831 6abe 0612 a73d
00000250: 8df9 a63e 428c 293e 295b b8be 4144 883c
00000260: 5ea7 443e fc48 8f3d cb0c c93e 9414 fc3e
00000270: 2a08 babe bf89 2a3e bd74 b3bd c22f 7c3e
00000280: e53e 923d 6c54 11be b7e1 913d 00af 46bd
00000290: 0c5e 56be 4f4a 9b3e f605 673e fd00 c73c
000002a0: 3020 403e 6a8b 05be 67da 41be ed0e 9abc
000002b0: 9bb6 c1bd 00fc 323e d635 193e c233 1b3e
000002c0: 6fe6 fc3d 0094 21be d6e6 523e f947 163e
000002d0: 018a 7e3e ce94 583d 0c14 8dbc a1f3 ff3d
000002e0: 23fb 9b3e fcea bf3e 6f50 dd3d 529a 0abf
000002f0: c5b7 d33d 8dd8 07be b372 023e 2321 b8bd
00000300: e67b 223d 45b3 b4bd c34c a23d fdec 3e3c
00000310: 0481 82bd 8b15 42be f3d7 9b3e 5967 23bf
00000320: c457 cd3e 5b9e 07bd 012f 82be 2dba 2b3e
00000330: ff57 593d 85d6 9e3e c424 e2bd 924e 773e
00000340: d4ca 87be 4f4a 5cbd 6f7b 173f 34b4 66be
00000350: 165c d63d 4621 443d b0bf 073e 1b34 34be
00000360: 8f76 633e ebbf acbd f333 b43d c11b acbe
00000370: ff39 febe c006 043f 8ef8 aabd 10d8 ad3d
00000380: aa37 913d e9a6 a2bc 8200 7abe c5e8 4d3e
00000390: 20d0 8a3e 41ee bb3d f2d3 60be 459a 08bf
000003a0: a8f4 d33e 8f7e b23e 57af 803e c7e0 a53e
000003b0: b979 813e d818 4ebe 038c f63d 5522 2c3e
000003c0: bc1f 883d 1fa6 d5be 0cf6 a53e ca91 dc3b
000003d0: d3d5 acbc c661 ddbc 2650 2cbd 5510 df3c
000003e0: fdac 32bd 6844 8dbb 73a0 9d3e 3a2f e23e
000003f0: d268 823c 66f7 7ebd 6195 163f d520 abbe
0.24512783 0.5742318 0.09558607 -0.2637406 -0.03680927 -0.12070583 -0.0057302713 0.15199421
-0.17053752 0.20075586 -0.08446095 -0.19239354 0.019880986 -0.16223414 -0.47587454 -0.44245988
-0.42192507 0.27246696 -0.29314598 -0.6598663 -0.29379806 0.122285604 -0.2878837 -0.013950923
0.072014704 0.3262112 0.22393273 -0.19604869 -0.22873291 -0.24632493 -0.15462111 0.3119175
0.31790704 0.41978222 -0.5396307 0.14289926 -0.080007926 -0.10179066 -0.12240367 0.040215615
0.13715048 0.16014619 0.016634021 -0.07505408 0.4416232 -0.45486063 0.37540278 -0.087861545
0.15088734 0.1959283 -0.042666025 -0.04472872 0.10348372 0.22490989 -0.07204645 0.46331188
0.39616147 -0.13353561 0.17270994 0.14119837 0.12389002 -0.05018802 0.23331945 0.055781655
0.34269363 0.29684308 -0.6096594 0.3420795 -0.31638741 -0.00450006 -0.1827198 0.17578736
0.12988666 -0.18806846 0.14274563 0.3653233 -0.09750695 -0.25233138 0.30761477 0.28971007
0.104248755 0.053743076 0.22071087 0.18378527 -0.11548238 -0.1693527 0.09820771 0.15895292
0.47012413 0.55006933 -0.23993884 0.14561309 -0.38005483 0.20691818 0.14590698 -0.013461759
0.2968434 -0.008718495 0.26017964 0.17203307 0.07695027 0.11641526 0.13424097 -0.44594848
-0.39931437 0.15645048 -0.19683185 0.3654453 0.31246006 -0.18995292 0.100481875 0.42156494
0.375908 -0.18451795 0.19404246 0.27861273 -0.15215118 0.34261203 0.042592585 -0.19064356
0.3630465 -0.181262 0.04468721 0.49862525 0.13544075 -0.009930341 -0.12638752 -0.2756422
-0.16541171 0.078248665 0.17370778 -0.041502904 -0.69988376 0.6174359 -0.031214263 0.2627415
0.33715966 -0.08791477 -0.23138243 0.06895706 0.38715184 -0.052201323 -0.5046387 -0.25235397
0.49133965 -0.14923233 -0.22870576 0.081577346 0.32612267 0.1655741 -0.3600705 0.016634108
0.1920447 0.069963425 0.39267573 0.4923445 -0.36334354 0.16654108 -0.087625004 0.24627593
0.071409024 -0.1419236 0.0712313 -0.048506737 -0.20934314 0.3033013 0.22560868 0.024292463
0.18762279 -0.13041463 -0.1893097 -0.018805945 -0.09458657 0.17478943 0.14961943 0.15156463
0.12348639 -0.15779114 0.2059587 0.14675893 0.24857332 0.052876286 -0.017221473 0.124976404
0.3046504 0.37483966 0.10806357 -0.54141724 0.10337786 -0.13266201 0.12739067 -0.08990695
0.03966894 -0.088232554 0.079247974 0.011653182 -0.06372264 -0.1895353 0.30438194 -0.6382957
0.40106022 -0.033110004 -0.25426486 0.16770239 0.053062435 0.3102304 -0.11042169 0.24151066
-0.26521933 -0.053781804 0.5917272 -0.2252968 0.10466783 0.047883295 0.13256717 -0.17598002
0.22213195 -0.08435043 0.08798971 -0.33614925 -0.49653623 0.515728 -0.08348189 0.08488476
0.07090695 -0.01985498 -0.24414256 0.20108326 0.27111912 0.09176303 -0.2195585 -0.53360397
0.41397595 0.34862182 0.25133774 0.32398054 0.2528818 -0.20126665 0.12038424 0.16809972
0.06646678 -0.41728303 0.3241428 0.0067312466 -0.021098053 -0.027024161 -0.042068623 0.027229467
-0.043622006 -0.004311133 0.30786476 0.44176656 0.015919123 -0.062247656 0.58821684 -0.33423486

linear1.bias f4 [256]
00000000: 76db cf3d c5b5 893e 8b6b 6bbd 4f17 2c3e
00000010: 56d3 823e cb97 45be dec3 2f3e ce74 7d3b
00000020: 8114 913d 00cb 143d e0ef 4abe 2469 0f3d
00000030: de6c 273e f3d1 0a3e 182d f3bd c9a7 d3bd
00000040: 1ec9 9bbd 68de cd3e 0d78 903e 9e6c a7bd
00000050: cfb1 5b3d 4ee9 a53d a3ff e33b 0ef4 edbd
00000060: 8885 94be 096f 12bd 9c4d 9f3e 6f21 8b3d
00000070: b78e 6ebc 76d4 2abd 2be7 1a3d 81df 523e
00000080: 69b0 8dbe a318 f93d cc0b 8fbe 8bcb 503d
00000090: 436a 29bc f9b7 0f3d 427b 343e 68f1 d13c
000000a0: a873 eabd e38b 73be 9297 8a3e f4ef d53d
000000b0: aa05 8b3e 5384 10be 1a89 8fbd b355 6b3c
000000c0: 7f43 393e 92f2 6ebe 6b7d 90be b8fb 6cbe
000000d0: d70a f8bd ef18 3e3c 9462 b63d b647 d1bd
000000e0: 1043 1dbe 7661 143a 8913 573e 4a39 0f3e
000000f0: 5e6e 29be 0573 9a3e 6bd2 d73e 58cd 3e3d
00000100: 4325 f33c b419 793e 3f82 8cbe 04b1 a43d
00000110: c716 34be 62c5 34be 8f76 943d a414 5fbe
00000120: 778c 74be 03e3 b83d cd10 0c3d 8023 2e3e
00000130: 5b20 9abe 3f42 81be b7c8 d73d 5a0c 14bc
00000140: d30c 14be 6f14 613e a9eb 30be f2c5 0ebe
00000150: 65cb 80be 0167 463e 9cfc 973e 94bd 053e
00000160: 1227 923e 4211 653e 23b9 a3bd aa91 69be
00000170: 8aec 04be 3e70 b4bd 6704 523d c7f8 153d
00000180: 8186 8abd b2ff f93c 89c0 98bd 1348 ac3d
00000190: ccf8 393e 0342 7b3e 9b8f 10be 3aaf d73d
000001a0: 7f4f aebe 2bb0 a93d 0264 143e d131 813d
000001b0: aab0 0d3e 2056 d03c d150 8a3c 9c2f 0abe
000001c0: 41e7 14be 65dc a1bb 821a ea3c 9da5 09be
000001d0: fdf9 60be fd95 14be 0f97 5d3b fc6a 4c3d
000001e0: 70cf 91be edee 933c c7d1 16be 65a1 4f3d
000001f0: 7873 8cbe 0c5e 6f3e 98c0 473c 36f7 3bbc
00000200: a879 6a3b 78a7 d13d 2ab8 25be da50 903d
00000210: 6aa5 0a3d b24c 813c 42ef 29bd 5c11 8a3d
00000220: 13f1 9a3e d61b ca3d a621 383a 2bcc 36be
00000230: 8093 19bd fb64 a4bd 7caf 443d 738e a83c
00000240: 604a 66be da5f 89be fdc3 48be 53ab a7be
00000250: d218 d03d 3bae 4e3e 5dce b53d 6d7f 3dbd
00000260: 787d 7d3d 37a7 c2bb f487 92be 4d42 16bd
00000270: 09e7 bdbd d700 863d 09f5 393e 48fb 6b3e
00000280: df40 053e 19c4 5ebe 23a6 7bbe 1301 123d
00000290: 2803 85be b2ea 5f3d 1dd4 2c3e 45df 783e
000002a0: 65de 48be 790c b0bd 4281 e43d 2abc ae3e
000002b0: 9c49 8bbe 8eaf e5bd 9bdc 773e 928c 18bd
000002c0: 8295 5dbd b5b3 4a3e 2c5b 883d 5032 833e
000002d0: cd2b c93d ecc0 fdbd 030c a0bc 12e1 5bbe
000002e0: 9b12 453e c007 a1bd dee5 6e3a 5787 b0bc
000002f0: 1415 88bd 9f38 81be 0b25 353e 068f ec3c
00000300: ab85 9bbe d0dd d4bc 1c7e d3be 28bc ccbc
00000310: caf7 e9bd c0ef 55be b7fd eebd 376d 6fbe
00000320: 14ac 263d 4b1d 34be 0001 833e ee8d 753e
00000330: ff58 493d 68ca 87be 7393 36bd a0c2 27bd
00000340: fabe 8fbd 908e 283e fc46 7d3e 2e34 8d3e
00000350: ce03 6cbd 3153 b8bc c86b 9ebe 0697 c3bd
00000360: 9d5e 4539 049b 81bd ca25 0dbe 8318 843e
00000370: 32af 7fbd 84c2 ab3c 2706 9aba 810f 73bd
00000380: d73b 12be b56f 5cbe d54b 0a3d 2c29 95be
00000390: 1f56 82bc 3da5 25be 82fd 90bd cc42 79be
000003a0: 5ae0 983e c616 81be 456c aa3e 9557 07be
000003b0: d178 1abe 479f 38bd 0237 e53d 02e0 40be
000003c0: 414d 323e fb8d 803e 3dd5 de3d bce1 34bd
000003d0: 1583 953d 2e20 93be 219f 713e d381 97bd
000003e0: de22 ff3d 6224 143d 6c4d 4bbe 5043 babd
000003f0: 7b95 ac3d ff34 ba3d 0dd9 8fbd 23da 81be
0.10149281 0.26896492 -0.057475608 0.16805767 0.25551862 -0.19296186 0.17164561 0.0038674357
0.07083989 0.03632641 -0.19818068 0.03501238 0.16350123 0.13556652 -0.11873835 -0.10334737
-0.076067194 0.40208745 0.2821659 -0.08175014 0.05363637 0.0810114 0.0069579645 -0.11618815
-0.29008126 -0.035750423 0.311139 0.06793486 -0.014560393 -0.041706525 0.037818115 0.20593072
-0.27673653 0.12162902 -0.27938688 0.050975364 -0.010340276 0.03508756 0.17625144 0.025627807
-0.11447841 -0.23783831 0.27068764 0.10446158 0.2715276 -0.14112978 -0.07008572 0.014363694
0.18092154 -0.2333472 -0.28220686 -0.23142898 -0.121114425 0.011602624 0.08905521 -0.10218756
-0.15357614 0.0005660275 0.21003546 0.13986698 -0.16546008 0.30165878 0.42152724 0.04658255
0.029680854 0.24326211 -0.2744312 0.080415756 -0.17586814 -0.1765342 0.07249176 -0.21785218
-0.23881708 0.09027674 0.03419571 0.1700573 -0.3010281 -0.25245854 0.1053633 -0.009036148
-0.14458017 0.21980451 -0.17277397 -0.13942698 -0.25155178 0.1937523 0.29684913 0.130606
0.28545433 0.22369865 -0.079942964 -0.22809473 -0.12980857 -0.08810471 0.05127373 0.036614206
-0.06763936 0.030517433 -0.07458598 0.084121846 0.18161315 0.245369 -0.14117281 0.10531469
-0.34045026 0.082855545 0.14491275 0.0630833 0.13836923 0.025431693 0.01688424 -0.13494724
-0.14541341 -0.004939603 0.028577093 -0.13442083 -0.21970363 -0.14510341 0.0033811962 0.049906716
-0.28478575 0.018058265 -0.14728461 0.050691027 -0.27431846 0.2337572 0.012191914 -0.011472514
0.003577808 0.1023702 -0.16183534 0.07046671 0.033849157 0.015783641 -0.04148794 0.06741592
0.3026205 0.098685905 0.0007024057 -0.17851321 -0.037494183 -0.08027073 0.048018917 0.020575738
-0.2248931 -0.2683094 -0.19606014 -0.32747898 0.10160984 0.20183651 0.08877251 -0.0462641
0.061887234 -0.0059403437 -0.2861935 -0.036684323 -0.09272582 0.06543129 0.1815988 0.23045075
0.13013028 -0.21754493 -0.24575095 0.035645556 -0.2597897 0.054667182 0.1687779 0.2430392
-0.19616087 -0.08596129 0.111574665 0.34127933 -0.27204597 -0.11215125 0.24205248 -0.037243433
-0.05409766 0.19795115 0.06658015 0.25624323 0.098228075 -0.123903126 -0.019536978 -0.21472576
0.19245379 -0.07862806 0.00091132324 -0.02154891 -0.06644645 -0.2523851 0.17689912 0.028876793
-0.30375418 -0.025984675 -0.4130715 -0.024992064 -0.11424215 -0.20892239 -0.11669486 -0.23381506
0.04069145 -0.175893 0.255867 0.23979923 0.04915714 -0.2652161 -0.044574212 -0.040957093
-0.07018848 0.16460633 0.2473411 0.27578872 -0.057620816 -0.022500606 -0.30941606 -0.0955029
0.0001882263 -0.06328395 -0.13783947 0.2579995 -0.06242294 0.020966776 -0.0011751101 -0.059340958
-0.1428064 -0.21526988 0.033763725 -0.29132974 -0.015910206 -0.16176315 -0.07079603 -0.24341887
0.29858667 -0.25212687 0.33285728 -0.13217004 -0.1508515 -0.045073774 0.111921325 -0.18835452
0.17412283 0.25108323 0.10880516 -0.04416059 0.073003925 -0.2873549 0.23595859 -0.07397809
0.12457822 0.03616751 -0.19853753 -0.0909487 0.08426949 0.090921395 -0.07023821 -0.25361738

linear2.weight f4 [3, 256]
00000000: 4c7d f7bd 3b06 cd3e 8059 01bf 80a1 aabd
00000010: 1da8 c2bd aa1b 73be ae57 df3c 1d01 673d
00000020: a518 87bd fd92 99be b6d0 1ebe 7295 5cba
00000030: fee8 643e 7fcc 563e 5761 88bd 2ed5 07be
00000040: f398 e7bd a95a 1e3e 92c5 a7bd 65ad eb3d
00000050: e958 3c3e 83c9 873e 408f 06be 34fd d43d
00000060: 466b 0abd 8256 1abe 6c9e 963e ba4b c0be
00000070: e4d1 90bd 2298 e2bd 7fc8 51be 8895 703d
00000080: e74f 8cbd dae3 b1bc d245 ba3c a1b1 cdbd
00000090: eceb 153b 2b0c b03e 1c5c 973e 4fe5 0e3e
000000a0: 173a c8bd b764 91ba e09a 6a3d 2729 c43d
000000b0: f35f 66bd 7300 adbd 23bf c33e 75df 2dbd
000000c0: c27a 8cbe 587c 8d3d 3b73 afbe e8c1 64bd
000000d0: c6d1 c3be c837 1e3d e448 ddbc fa54 49be
000000e0: a19a a7be 9919 01bf 808f 5b3d 066f 4b3e
000000f0: 033f 9cbe bcb2 673d fd9b 423e ad53 0ebe
00000100: 0452 58be 42ad e03d 56f0 88bc 7f2f abbd
00000110: b17c 903e 25b0 c43d b48f ccbd da05 f73c
00000120: 211b 0fbe f827 163e db53 15be b280 45be
00000130: 6df0 a53d 207c 0f3c 27a0 6b3e 43b2 673d
00000140: 7bbc d4bd ee7a 143d 66f1 7d3e 953e e3bc
00000150: e43b a63e 1fdd 463e 2090 d23e 3275 b2bd
00000160: 4f8a 813e 3e5c cb3d a962 6fbe 699f 5dbe
00000170: cfcd b3be ad00 fe3d e471 96bd da48 84be
00000180: c0cc 79bc 978c ed3d 6e67 59bd ffc2 9cbe
00000190: 0ee0 e63d c9f8 1ebe 6053 a83d 1bd9 063e
000001a0: bbef 6fbe 719f 22be d19b 273e a379 133e
000001b0: 9312 253e d8cd 2b3e 4386 6dbe c089 adbe
000001c0: 9eee e1be e7f5 ce3c 5a79 33be b6c9 e93b
000001d0: f5a2 893b 95b3 77be 5046 24be 1624 d2be
000001e0: f567 c7bb 2bf8 9fbe cb82 7a3e 768d 81be
000001f0: d122 c6bd 52a8 973e 0fec 8fbd ba63 16bd
00000200: 5c5c 813e b2d7 9e3e 4b53 a1be b0b4 513d
00000210: 0062 b9bc db9e 3dbe 6443 f33d 7a3f 6c3d
00000220: 740a 713d ade0 3dbd fae5 e03d 6036 d7be
00000230: 544e cbbc b6ed 0a3e 1e74 55be 75d7 d2bd
00000240: be58 20be e068 cebd 4515 b13e b448 3f3e
00000250: c7ca a93d dc5a 333e 211f 9ebd 489b 95be
00000260: 3169 3a3e a052 96be dcae 393c 1a27 21bb
00000270: 2ed7 11be 75c5 55bd b12d 96be b41d 123e
00000280: bf75 813e f516 15bf ce50 ecbd 0d0c 9abe
00000290: aade 943d 48a6 5ebe 6bb9 593e 0746 8e3e
000002a0: 9129 29be 05f6 953e 3487 ec3d cd16 e73d
000002b0: a242 22bd 2fcb 39be 6cdd 0d3e 83f5 413e
000002c0: c940 7abe 7279 c93c c896 2c3e c02f bf3d
000002d0: 55e3 62bd e2a6 b8ba f928 703c 31c7 bdbb
000002e0: 5ada ffbc 17aa 853e 8df4 7e3e 4428 cd3d
000002f0: 2b7c 04be 329a 72be b453 0c3e ba84 f2bd
00000300: e7cb 11be 81de 0e3e 9482 5f3c b078 97be
00000310: 1da8 12bf 4374 4fbe 9048 d1bd a2b8 483d
00000320: 0958 75be 9c5a 17be 387c 353e 1611 8a3d
00000330: 0778 8abd 574f b5bc a6f0 fcbd 4162 4cbe
00000340: 39fb fd3c 98de 873e 2fc9 bb3d 9055 f23d
00000350: 5e28 5fbe 5079 1ebe aa97 ebbd 67e6 0cbe
00000360: 8893 f8be 849d 103b fc38 67be efc7 c93d
00000370: 675e 803e 1a5c 6d3e 7e69 35bd 4a81 30bd
00000380: 5386 e93d ce1d 16be 53cc 69be 2c43 0dbe
00000390: 4611 a4be 9636 15be 045a df3c 6003 c33c
000003a0: f053 473e 19de 423e 7740 da3e ad2b 2d3e
000003b0: 3767 0fbf 084c 90bd 61b5 c2bc af0d 14bd
000003c0: 763f 2b3d 8c38 d83e 0242 2bbe e48c b3bd
000003d0: e444 a5bd 597b 14bd 8b1b ba3d de5b 9dbe
000003e0: a9bf c4bd 4994 8abe 28ed 803c c807 97bc
000003f0: 7452 b03e 99d9 11be 8b12 5e3e 20ec ff3c
-0.12084445 0.40043816 -0.5052719 -0.08331585 -0.09504721 -0.23741022 0.027263489 0.056397546
-0.065964974 -0.29994956 -0.15509304 -0.0008414603 0.22354504 0.20976447 -0.06659191 -0.13264915
-0.113084696 0.15464272 -0.081919804 0.11507682 0.18393292 0.2652093 -0.13140583 0.10399857
-0.03379371 -0.15072063 0.2941774 -0.37557775 -0.070712835 -0.11064173 -0.2048664 0.058736354
-0.06851178 -0.021715093 0.022738371 -0.10043646 0.0022876216 0.34384283 0.2956246 0.13954662
-0.09776705 -0.0011092637 0.057276607 0.09578162 -0.056243848 -0.08447351 0.38231763 -0.042449433
-0.27437407 0.06908482 -0.342676 -0.055848986 -0.38245982 0.038627416 -0.027012296 -0.19661322
-0.3273516 -0.50429684 0.05360365 0.19866571 -0.30516824 0.05656694 0.19004817 -0.13899107
-0.21125036 0.10970546 -0.016716164 -0.083586685 0.28220132 0.096039094 -0.09988347 0.030154157
-0.13975193 0.14663684 -0.1458277 -0.19287375 0.08102498 0.008757621 0.23010312 0.056566488
-0.10387512 0.036250047 0.24799117 -0.027739802 0.32467568 0.19420289 0.41125584 -0.087137595
0.25300834 0.09929703 -0.2337748 -0.21642841 -0.35117957 0.12402473 -0.07345942 -0.2583683
-0.01524657 0.11599081 -0.053077154 -0.3061752 0.11273204 -0.15524592 0.082190275 0.13168757
-0.23431294 -0.15881135 0.16368033 0.1440187 0.16120367 0.16777742 -0.23195748 -0.33894157
-0.44127363 0.02526374 -0.1752676 0.0071346415 0.004200334 -0.24189599 -0.16042447 -0.41043156
-0.0060853907 -0.31244025 0.24463956 -0.2530324 -0.096746095 0.29620606 -0.070274465 -0.0367162
0.25265777 0.31023937 -0.3150886 0.051197708 -0.022629738 -0.1851763 0.11878088 0.057677723
0.05884786 -0.046356846 0.109813645 -0.42033672 -0.024817623 0.13567242 -0.20845076 -0.102950014
-0.15658852 -0.10078597 0.3458654 0.18680078 0.0829063 0.17515129 -0.07720781 -0.29220033
0.1820419 -0.29359913 0.011333194 -0.0024589957 -0.14242241 -0.052190263 -0.29331735 0.14269143
0.25285146 -0.58238155 -0.1153885 -0.3008732 0.07269032 -0.21743119 0.21262138 0.27787802
-0.16519763 0.2928926 0.115492254 0.11283646 -0.039614327 -0.18143915 0.13853997 0.18941312
-0.24438776 0.024594042 0.16854393 0.093352795 -0.055392582 -0.0014087821 0.014658206 -0.0057915677
-0.031232048 0.2610633 0.24897976 0.10017446 -0.12937991 -0.23691633 0.13703805 -0.11841722
-0.14237939 0.13952066 0.013641972 -0.29584265 -0.5728777 -0.20259194 -0.10218918 0.049004205
-0.23959364 -0.14780658 0.17723167 0.0674154 -0.06761175 -0.022132559 -0.123505875 -0.19959356
0.031003581 0.26537013 0.09169232 0.11832726 -0.21792743 -0.15475965 -0.11503537 -0.13759767
-0.48550057 0.0022066543 -0.22580332 0.098525874 0.25072023 0.23179665 -0.04429006 -0.04309205
0.114025734 -0.14659807 -0.2283185 -0.13795155 -0.3204443 -0.14571604 0.027264602 0.02380532
0.19465613 0.19030036 0.42627308 0.16911192 -0.5601687 -0.07045752 -0.023768129 -0.036145862
0.041808568 0.42230642 -0.16724399 -0.08767107 -0.080697805 -0.036250446 0.09087285 -0.30734152
-0.09606869 -0.27066258 0.015738085 -0.018436328 0.34437907 -0.14243163 0.21686761 0.031240523

linear2.bias f4 [3]
00000000: 9489 183e 93e2 48bd d527 afbd
0.14896232 -0.049044203 -0.08552519
